FNAF Agent/model/model.pth (torch, 38291 bytes, 4 tensors)

linear1.weight f4 [256, 19]
000000 98 f9 37 3e 58 26 52 bd 72 f2 87 3e 08 46 aa 3d
       0.17966306 -0.0513061 0.2655216 0.08314139
000010 1c 6f 39 bd 1f c1 10 3e 3c 3b 84 3e 11 e6 44 3e
       -0.045271978 0.1413617 0.25826442 0.19228388
000020 be 36 02 3e fc cb 42 be 8f 04 00 3e 45 90 49 3e
       0.12716195 -0.19023126 0.12501739 0.1968394
000030 af 10 76 be 75 70 89 3c ce 91 75 bd a9 d7 3e 3e
       -0.24029802 0.016777257 -0.059953503 0.18636955
000040 2f 46 90 3d 33 91 3c be fc 58 8a 3d 1a 52 f0 bd
       0.070446365 -0.18414764 0.06755254 -0.1173441
000050 31 be 8f 3c 41 b6 57 bc 92 a4 ce 3e 6f 53 3c be
       0.017546745 -0.013166011 0.40359932 -0.18391202
000060 e7 f9 d4 bb 67 85 79 bd 03 48 19 3e fa 8f 83 be
       -0.0064995172 -0.060918238 0.14968877 -0.25695783
000070 78 7b 12 3d b8 f4 7e be 84 b0 57 be eb 6b 6c 3c
       0.03576228 -0.2489804 -0.21063429 0.0144300265
000080 30 68 f2 bb 46 63 bd be 00 b8 79 b9 dd e7 33 be
       -0.007397674 -0.36989802 -0.00023815036 -0.17568918
000090 6a bb d8 bd 8f 93 88 be c1 fe b8 3d 68 9f ea bd
       -0.105826214 -0.26675078 0.090329655 -0.114561856
0000a0 f6 24 24 bd e3 33 d1 3d 83 a5 10 3e 90 56 db 39
       -0.04007431 0.10214975 0.14125638 0.0004183543
0000b0 f5 a5 45 3d 3b d5 e4 bd 8d 38 71 be 8f 1f 75 3e
       0.048253972 -0.11173483 -0.23556729 0.2393782
0000c0 64 3f b5 3d ce 2f a7 3d df 6f a5 3d 2f df 77 bd
       0.088499814 0.08163415 0.08077978 -0.06051558
0000d0 be 20 0e 3e 88 47 42 bd bf a1 f3 3d 69 50 f1 bd
       0.13879678 -0.0474315 0.11896085 -0.11782915
0000e0 77 da 74 3e d6 bf 99 bc c0 cc 88 bd 20 98 0a 3e
       0.23911463 -0.018768232 -0.06679678 0.13534594
0000f0 20 88 a5 3b c1 c7 a5 3d 09 4c bb bd 5f ab 3d be
       0.0050516278 0.08094741 -0.09145362 -0.18522404
000100 67 59 46 3e 2d 4e 17 be ef 1d 59 be 08 73 2b 3e
       0.19370042 -0.14775915 -0.21202825 0.167431
000110 44 74 11 be 10 9c e3 bd d3 c3 0d be b7 18 e0 bd
       -0.14204508 -0.11113751 -0.13844232 -0.10942214
000120 b2 7c bb 3d 0a 2b 9d 3d 91 ef 9d bd 27 e6 01 be
       0.09154643 0.07674225 -0.07711709 -0.12685452
000130 90 03 ec bd 3c f3 cc ba 7f b5 03 3e eb e1 1c 3e
       -0.11524117 -0.0015636454 0.12862204 0.15320556
000140 57 83 3b bc fc 8e 8d be e0 09 7c 3d 50 ec bf 3d
       -0.011444888 -0.2764815 0.061532855 0.09371245
000150 15 fd be bd 98 bc dd bd 48 97 fd 3d 5f f4 34 be
       -0.09325615 -0.10826987 0.1238237 -0.17671345
000160 91 60 38 3d 5d cd 37 3e 3c 54 29 be 4e 05 8e bd
       0.045013968 0.17949434 -0.16536039 -0.069346055
000170 45 d5 97 bc 22 78 20 be 6e 4c 96 be 60 3f 57 bd
       -0.018534312 -0.15670827 -0.29355186 -0.052550673
000180 4a 78 e4 3c b9 ad fd bd 66 57 20 3f 98 8b d4 3b
       0.02788939 -0.123866506 0.6263336 0.0064863674
000190 5e fe e2 bd 93 42 90 be e1 d4 94 be e4 2a 5c be
       -0.11083673 -0.28175792 -0.29068664 -0.21500736
0001a0 70 9b b7 bc 7b d3 bb bd d0 57 49 bd 74 b0 9f bc
       -0.022412986 -0.09171196 -0.04915601 -0.01949332
0001b0 9c 99 5b be c5 7d 53 bd 5c 42 65 3d cc 13 bc bd
       -0.21445316 -0.051633615 0.05597149 -0.091834635
0001c0 6b d6 fc bd 8f b8 16 bf 06 08 5a be 75 f5 99 bc
       -0.123455845 -0.58875364 -0.21292123 -0.0187938
0001d0 7e e8 a0 3a a9 19 fe 3c 0c 8e 5d 3d 20 96 f1 3b
       0.0012276319 0.031018095 0.054090545 0.0073726326
0001e0 c2 24 0a be 36 73 44 be f2 8c 20 be 90 b5 85 bc
       -0.13490584 -0.19184574 -0.15678766 -0.016321927
0001f0 08 0d 1b 3d 6c e9 e4 bd 07 9e d1 bd 40 38 23 be
       0.037854224 -0.11177334 -0.102352194 -0.15939426
000200 1d e6 be bd 70 4a 85 bd 9c d2 04 3d 75 3e c5 3c
       -0.093212344 -0.065083385 0.032427415 0.024077633
000210 c0 5c 5a be 86 c3 4a be 47 b4 35 3e 10 f1 93 3e
       -0.21324444 -0.19801149 0.17744552 0.28894854
000220 80 1c 60 3f f1 b6 16 3e dd f4 e6 bd 3f 9f 5a 3d
       0.8754349 0.14718224 -0.11277173 0.053374525
000230 97 37 23 be 0f 12 82 3d ea 3e 02 be 6f 04 2c 3e
       -0.15939175 0.06351101 -0.12719312 0.16798566
000240 f2 ef 11 be 28 53 4c bd cb 99 a2 3e 4e 8a e1 3d
       -0.14251688 -0.04988399 0.3175796 0.11012708
000250 b8 61 e6 3c a1 ab c8 bd 7a 7e 50 3e 9f 8d e9 be
       0.028122768 -0.097983606 0.20360747 -0.4561586
000260 05 53 77 bd 2b 9d e9 bc d3 80 9f bd e0 86 5d be
       -0.060381908 -0.028517326 -0.07788243 -0.21633482
000270 55 62 d0 bc d2 af f0 3d 7e 44 7a bd d3 42 8b 3d
       -0.025437513 0.11752285 -0.061100475 0.06799855
000280 57 08 c1 be f4 0b 53 bd 20 ad 94 be 9b be 60 3e
       -0.37701675 -0.05152507 -0.29038334 0.2194771
000290 b0 6c a6 bd e4 f9 3c be b7 72 7b be 10 a2 f5 bc
       -0.08126199 -0.184547 -0.24555479 -0.029984504
0002a0 92 b2 99 be b3 ef 64 be d8 29 8d 3d 51 a9 9f be
       -0.3001905 -0.22357063 0.06892747 -0.31183866
0002b0 29 49 2f 3d 56 ea 85 3d d1 20 bc 3e 38 fc 1e bd
       0.04279438 0.06538837 0.36743787 -0.038814753
0002c0 b2 ee 65 3d 3e 83 84 bd 3d 0d aa be 07 8e 50 be
       0.05613584 -0.06470345 -0.33213225 -0.20366679
0002d0 04 aa ec 3d 5a a1 82 bd dc 50 47 be 34 0e d6 bd
       0.115558654 -0.063784316 -0.19464439 -0.10451928
0002e0 82 25 68 be bd 6e 19 3b f8 1e 00 bd b7 8a 80 be
       -0.22670558 0.0023411952 -0.031279534 -0.2510583
0002f0 50 18 9d be 7f bb fe be ab cc 38 3e af d6 a2 bd
       -0.3068261 -0.49752423 0.18046825 -0.07951104
000300 e5 c9 c6 bd df 04 bc bd 85 64 79 3d df d7 a2 bd
       -0.09706477 -0.091806166 0.06088688 -0.079513304
000310 d6 ba f2 bc 8e fb c3 bd 68 c3 21 3d fa 81 58 3d
       -0.029630106 -0.095694646 0.039492995 0.05285833
000320 b1 9e f0 bd 63 f5 65 3e 8f b3 57 be 23 5d f1 3b
       -0.11749018 0.22456889 -0.2106459 0.007365839
000330 21 10 2e be 20 ca 38 bc c9 42 84 bd 37 3f 8a 3e
       -0.1699834 -0.011278659 -0.06458051 0.27001354
000340 74 f0 17 3e 91 eb 33 3e b0 3b 04 be 1c 7d 6f bd
       0.1483782 0.1757033 -0.12913394 -0.058468923
000350 24 e9 01 bd 6d 4e 00 be 94 03 7b 3d 65 2c 58 be
       -0.03171648 -0.12529917 0.06128271 -0.21110685
000360 a2 02 63 be 1a 04 87 3d c6 75 2c be 50 a7 26 3c
       -0.22168973 0.06592579 -0.16841802 0.010171726
000370 38 79 e7 3c 18 3d 9e bd ff 01 4b be 26 bb d2 bd
       0.028256044 -0.077264965 -0.1982498 -0.10289602
000380 c1 5e 4e 3e 4f a2 66 3e a8 de ac bd 6e e4 0d be
       0.20153333 0.22522853 -0.08440906 -0.1385667
000390 f9 79 d0 bd 05 ee 51 bd 95 ad 64 bc 25 b8 57 bd
       -0.101795144 -0.051252384 -0.013957401 -0.05266585
0003a0 6a 48 fe bd b1 ef 0f 3e b6 e0 12 be b1 06 64 3e
       -0.12416156 0.14056279 -0.14343533 0.22268178
0003b0 e9 2e 0c 3e 8e b8 6d 3e 44 55 e1 3b 40 b3 c2 bd
       0.1368977 0.23214933 0.0068766195 -0.095068455
0003c0 f5 62 6f be 5c ce 36 3c e6 fb 8f be 6d 93 25 3e
       -0.23377593 0.011157598 -0.2812187 0.1616952
0003d0 25 2a d0 bd 64 88 d7 bd 65 60 69 3e 3c fe b4 bd
       -0.101642884 -0.10524061 0.22790678 -0.08837554
0003e0 20 49 8d 3c e2 3e 95 bd 64 ae 3d 3e 37 aa 3a be
       0.017246783 -0.072873846 0.18523556 -0.18228994
0003f0 53 4c 8b 3d 29 b6 5b bc 21 ac 5c be ab 05 ac 3c
       0.06801667 -0.01341013 -0.21550037 0.020998796

linear1.bias f4 [256]
000000 90 ef 2e 3d a0 b5 9a bd 17 d6 29 3b df ba 28 be
       0.042708933 -0.075541735 0.002591496 -0.16477536
000010 03 c2 5a be 44 6e d6 bd 9e a8 a3 bd 6c b4 fc 3d
       -0.21363072 -0.1047025 -0.079911456 0.123391
000020 8e 86 ea be aa 56 79 bd d1 61 58 be 34 82 b9 bd
       -0.45805782 -0.060873665 -0.21131064 -0.090580374
000030 0a 21 a2 bd 10 58 6f bd 1d 09 30 be e7 8d 32 be
       -0.07916458 -0.058433592 -0.17190976 -0.17436944
000040 58 c8 96 bc 60 06 a5 be 5a 93 4f be 8f 0f 5a 3e
       -0.018406078 -0.32231426 -0.20271054 0.21294998
000050 5d 0b 16 3d 7e 46 10 3e b2 7d 09 3e e3 a0 c4 bd
       0.03663193 0.1408939 0.13426855 -0.09600999
000060 07 a5 49 bb ba 07 2e be c0 9c 32 3e 0d 15 0a be
       -0.003076853 -0.16995135 0.17442608 -0.13484593
000070 db f2 80 be 98 65 8a 3c 45 aa e0 bd 8b e8 95 bc
       -0.25185284 0.016894147 -0.10969976 -0.018299362
000080 6b 2b 9d bd 01 fd 2f 3d 85 6a 5e 3e 55 e0 44 be
       -0.07674297 0.042965893 0.21720321 -0.19226201
000090 d1 56 67 be f3 0a 4e be c7 d3 76 be 53 53 80 be
       -0.22591712 -0.20121364 -0.24104224 -0.2506357
0000a0 7f f8 e0 bd 58 81 9b be e3 28 16 bd a5 d0 a1 bd
       -0.10984897 -0.3037212 -0.036660086 -0.07901124
0000b0 3a ea 63 bd 3b 47 60 3e 57 2c e6 bd c0 39 26 be
       -0.055643298 0.21902172 -0.11238926 -0.16232967
0000c0 fe 9e 40 3e 9d 2f 83 bd 7d 65 6c 3d 14 75 98 bb
       0.1881065 -0.06405566 0.057713974 -0.0046526287
0000d0 aa 27 ef 3d 83 34 a9 bb a0 03 07 be 66 a3 13 be
       0.11677487 -0.0051637306 -0.13184977 -0.144178
0000e0 2c 1c 0a 3e ef e9 90 3e 82 f7 0f bd be 5b 4b 3d
       0.13487309 0.28303477 -0.03514815 0.04964804
0000f0 fb 55 b3 bd 6e d7 75 3e 29 f5 9e be 03 8b a6 be
       -0.08756634 0.24007961 -0.31046417 -0.32527933
000100 03 19 8d 3d 12 7b ab 3d e1 b3 f9 3d 8a d9 7f bc
       0.06889536 0.08373083 0.12192512 -0.01561583
000110 03 e6 c0 bc 20 86 84 bd 95 e9 e3 3c 97 33 ab be
       -0.023547178 -0.06470895 0.027821342 -0.33437797
000120 51 c4 78 ba 55 9b 7d 3c 15 bd b9 3d 7e db 94 be
       -0.00094897026 0.015478929 0.09069268 -0.2907371
000130 d0 48 d4 bc 5b 84 a0 bd fc d4 4b be 88 2b 8c be
       -0.025913626 -0.07837745 -0.19905466 -0.27376962
000140 84 0e 84 bd c9 67 51 be 11 f2 d6 bc ee b4 4a be
       -0.06448081 -0.20449747 -0.026238473 -0.19795582
000150 b2 be 62 be 3c b5 3f bb 3b 6d 98 be fc eb eb 3c
       -0.22143057 -0.0029252311 -0.29770836 0.02879905
000160 19 34 01 be 00 b5 5c be 24 c2 4b bd 13 fd 96 be
       -0.1261753 -0.21553421 -0.049745694 -0.29489955
000170 06 e1 50 be 93 37 c3 bd 89 11 4c 3c 93 80 0e be
       -0.2039834 -0.09532084 0.012455353 -0.13916235
000180 07 ec c5 3d d6 63 86 be 0b be d2 3c a0 7f 96 be
       0.09664159 -0.26248044 0.025725385 -0.29394245
000190 f7 37 b8 3c 68 81 7e 3c ae a2 f8 bc 35 bd 29 3d
       0.022487624 0.015533783 -0.03035101 0.041440208
0001a0 bf 82 b1 3a b0 d0 99 3d c1 b0 16 be 3c dd 92 be
       0.0013542994 0.07510507 -0.14715864 -0.28684413
0001b0 6b 30 53 bd da 2b 7b bd 45 96 ba bd d8 79 80 be
       -0.051559847 -0.061321117 -0.09110693 -0.2509296
0001c0 a7 12 99 3c c3 87 a7 3d 1d b5 a2 3d dc 4c 8f be
       0.018685652 0.08180191 0.07944701 -0.27988327
0001d0 5a 39 1d be 0c 8e a4 be 4c 52 65 bd a3 d2 56 be
       -0.15353909 -0.32139623 -0.055986688 -0.20978789
0001e0 ac 64 45 be dd 27 19 3e f0 96 0e be 59 8d 4d 3e
       -0.19276685 0.14956613 -0.13924766 0.20073451
0001f0 0d 1a af bd 4c 33 13 3e e7 bf 98 bd bf 82 d0 3d
       -0.08549891 0.14375037 -0.074584775 0.10181188
000200 07 b1 a4 be 15 79 50 be 41 42 4e 3e 42 49 b3 bd
       -0.3216631 -0.20358689 0.20142461 -0.08754207
000210 0a ee fc 3d e2 c9 c0 bc e3 04 af bd e9 c3 a9 be
       0.1235009 -0.023533765 -0.08545854 -0.3315728
000220 56 4f ba be 87 fd 41 be 62 1e ca ba 41 4e b1 3d
       -0.36388654 -0.1894437 -0.0015420432 0.08657504
000230 91 47 7b be ab a2 6e be 3c 26 7a be cd e1 4d be
       -0.24539019 -0.2330424 -0.24428648 -0.20105667
000240 a6 8d 9e 3d 7b 99 3e 3d 58 66 af 3c 2c d4 1c be
       0.07741861 0.04653309 0.021411106 -0.15315312
000250 f6 b6 93 bd d6 d9 85 be 18 1c 8b be 02 07 9a 3d
       -0.072126314 -0.26142758 -0.2716987 0.07520868
000260 a5 31 0e be a0 bf 37 3d dd 39 24 be 97 b9 55 be
       -0.13886125 0.044860482 -0.16037698 -0.20871578
000270 f2 d0 ac 3c 9e 1b 31 be 6a 95 b3 bd 5b f0 1f 3d
       0.021095727 -0.17295691 -0.08768733 0.03904758
000280 99 44 c1 3d 8b e8 d2 be 20 46 15 be 00 00 f1 3c
       0.09436912 -0.4119304 -0.14577532 0.029418945
000290 a2 ac f1 bb 57 cc d5 bd 10 c3 f5 3d 4f 39 d8 bc
       -0.0073753158 -0.10439365 0.12000096 -0.026394514
0002a0 72 b2 6c 3d 42 6b 9d be 9a a0 d5 bd 8a 8b 09 3e
       0.057787366 -0.30745894 -0.10431023 0.13432136
0002b0 ca e6 05 3d 98 2e 3d be fc 96 37 be c1 8e ed bd
       0.0326908 -0.18474805 -0.1792869 -0.11599494
0002c0 15 0a 9a 3c a8 6b 60 bc 04 85 cf bd 9c d2 e2 3d
       0.018803636 -0.013697542 -0.101327926 0.11075327
0002d0 e0 b6 66 3e e5 15 f5 bc 13 43 1a be 58 fe 0d be
       0.22530699 -0.029917667 -0.1506465 -0.13866556
0002e0 27 9d 86 be c2 a2 d8 bd 3a 18 ef 3d a6 af c4 3d
       -0.26291773 -0.105779186 0.11674543 0.09603815
0002f0 43 4d 36 be a8 31 d8 bd 65 92 a2 bb 06 9c 44 3e
       -0.1780291 -0.10556346 -0.0049612992 0.19200143
000300 0a 43 94 3d a6 91 4c be 42 6b 97 3d 76 e5 2b be
       0.07239349 -0.19977435 0.07393505 -0.16786751
000310 4c c6 fa bc 44 e8 08 be 61 8c 95 be 76 fd 41 be
       -0.030612133 -0.13369852 -0.29208663 -0.18944344
000320 f9 78 b9 bd 5c c7 b4 bd d3 2b 54 be a8 0a 74 be
       -0.09056277 -0.08827087 -0.20719843 -0.2383219
000330 70 4e 2b bd 51 0b 8e be 93 63 0d be 81 40 21 3e
       -0.04182285 -0.2774301 -0.13807516 0.15747263
000340 3d 48 0b be 79 45 57 be 41 42 0b bd 38 4d cc be
       -0.13601775 -0.21022595 -0.03399873 -0.39902663
000350 45 6c 0f 3e 8d f0 52 3e 8c 64 5a be 06 b9 de bd
       0.14006145 0.20599575 -0.21327418 -0.10875134
000360 d7 53 92 bd 15 ab 04 3e 91 97 29 3d 21 42 be 3b
       -0.071448974 0.12955888 0.04140431 0.005806223
000370 f0 39 38 3d c1 0a 7f 3c db 04 65 be 4a 4c b4 bd
       0.04497713 0.015566529 -0.22365133 -0.088036135
000380 4f 26 b8 be 5c aa 0b bd 5e d4 02 3e 3e 12 c6 be
       -0.35966727 -0.034098014 0.12776324 -0.38685793
000390 0b 23 28 be ec ff c4 bd 1b b1 63 be aa be 30 be
       -0.16419618 -0.09619126 -0.22235529 -0.17260233
0003a0 cf 7a 90 3d 33 96 21 be 19 9d b4 bd 0b ca 9a be
       0.07054674 -0.15779953 -0.088190265 -0.30232272
0003b0 33 c6 14 3c 3b 6f 59 be 79 46 c8 3d a1 6d 48 be
       0.0090804575 -0.21233837 0.097790666 -0.1957307
0003c0 cd f0 75 3d 91 c0 18 3d 2a 9c 50 be db f1 14 3d
       0.0600441 0.03729302 -0.20372072 0.036363464
0003d0 40 b3 51 bd e4 93 19 be 22 55 96 3d da bf a9 bc
       -0.051196337 -0.14997822 0.073404565 -0.020721365
0003e0 74 0f b8 bd 63 a9 3a be 9c dd cd bd f5 b5 fd 3c
       -0.089873224 -0.18228678 -0.10052034 0.030970553
0003f0 00 1e 3e bc a7 33 4b be 76 95 89 bc 52 83 0c 3e
       -0.011603832 -0.19843923 -0.016794901 0.1372197

linear2.weight f4 [16, 256]
000000 2b c2 01 3d 8b 73 a8 3b 99 a2 34 3d e3 60 ca 3b
       0.031679314 0.005140727 0.044100378 0.0061761006
000010 3b 37 5c 3b 3e 3a ad bb 0a 7d 44 3c 35 5d e4 bd
       0.0033602256 -0.005286484 0.011992702 -0.1115059
000020 57 09 8a bc 56 4d 9a 3c a2 84 1f 3d f0 bd 1b bc
       -0.016850157 0.018835705 0.038944848 -0.009505734
000030 51 be 04 3d 8c 1b 97 3c bb 9c 9e 3c 9c 44 21 3d
       0.032408062 0.018445753 0.019361844 0.03937207
000040 c0 e9 41 3c c0 a5 85 3d 5f 67 b2 3c 36 49 02 bd
       0.0118355155 0.06525755 0.021777807 -0.0318081
000050 a6 34 05 3c ed 77 21 bb 89 53 64 3c f5 f1 e3 bb
       0.008130228 -0.0024638132 0.013935932 -0.0069563338
000060 33 31 3f 3d 62 54 1f bd 51 74 aa bd 17 48 3d 3d
       0.04667778 -0.038898833 -0.08322967 0.04621133
000070 7e 9a ed 3c 04 df 57 3d 16 42 1d 3c cc df b4 3c
       0.029004332 0.05270292 0.009598276 0.02207937
000080 69 59 a7 bc a0 49 66 3d 0d 86 c8 3d e9 cd 0e bd
       -0.020428376 0.056222558 0.09791193 -0.03486434
000090 c2 be c6 bb 36 f7 96 3d 54 38 36 bb 3a a5 71 bc
       -0.0060652206 0.073713705 -0.002780457 -0.014748866
0000a0 8c 2d 4e bd db 59 50 bd d0 17 a8 bc 10 35 87 3d
       -0.050336406 -0.050866943 -0.020519167 0.06601918
0000b0 e9 8b ef 39 9c 8e c7 bc 65 c1 c8 bc 5b e6 75 3c
       0.00045689874 -0.024359994 -0.02450628 0.015008534
0000c0 31 b6 79 3d 7b 22 81 bc 7c 94 be bd 8e e4 a6 bb
       0.060964767 -0.015763512 -0.09305665 -0.005093164
0000d0 52 1e 26 bb 92 9b 6b bc f5 9b 86 3c a6 97 5e 3d
       -0.0025347662 -0.014380353 0.016431788 0.054343842
0000e0 d9 1c 59 bd 99 cf c7 bd ec ac 78 3d b5 3b cf bc
       -0.053006027 -0.09756393 0.060711786 -0.025297025
0000f0 fb ca 36 bc 20 2f 91 be 90 46 c9 3a 46 e4 f1 3c
       -0.011156793 -0.28356266 0.0015356112 0.029527795
000100 7f f2 64 bc 0a 48 b1 3c 5b b0 03 3d 33 18 36 3d
       -0.013973831 0.021640796 0.032150608 0.044456672
000110 f2 05 cb bb 59 5f 11 bd 5e 4a eb 3b f8 42 fc 3c
       -0.006195777 -0.03549132 0.007180496 0.030793652
000120 97 8b ef bc 80 00 9f bc ba c3 02 3c 80 e1 1c bd
       -0.029241366 -0.019409418 0.007981235 -0.03830099
000130 d8 ce 30 3d cf 14 1d 3d 4e 8a c7 3d ae d6 b3 ba
       0.04316601 0.038349923 0.097431764 -0.0013720596
000140 f3 54 30 3b 88 26 65 3b 66 a1 32 3d c2 45 4c bc
       0.0026906102 0.0034965593 0.043610953 -0.012467803
000150 0b f3 40 bd 6e 8f cc bd 76 5a ea 3d 06 26 04 3d
       -0.047106784 -0.099882945 0.11443035 0.032262824
000160 db a8 63 3c dc 54 71 3d aa d6 23 bd 2c b4 40 3c
       0.013895239 0.05891882 -0.03999964 0.011761706
000170 a9 67 bc bb ab cc 22 3d fd 71 82 3d b2 19 51 3c
       -0.005749662 0.039745968 0.06369398 0.012762474
000180 1a a4 5d bd 61 e7 56 bc c3 71 45 3b 8f 9d 58 3c
       -0.054111578 -0.0131166885 0.0030127622 0.013221159
000190 d0 39 29 3e 9e 54 7a bc 10 57 76 3c 78 80 c9 3d
       0.1652596 -0.015278963 0.015035406 0.098389566
0001a0 95 41 c6 bc eb 90 e0 bd 30 f0 76 bd c2 59 ac 3c
       -0.024201194 -0.10965141 -0.060287654 0.021038894
0001b0 ea 18 a2 3d dc 82 89 3d 17 64 2b 3d 3c 61 bd ba
       0.07914908 0.067144126 0.0418435 -0.0014448534
0001c0 44 e7 33 3d 8a d8 93 bc 96 d2 84 3c bc dc 59 3b
       0.043921724 -0.01804759 0.016213696 0.003324314
0001d0 70 33 15 bd 45 16 50 bc 91 67 a7 3b 9a 2e 2a bd
       -0.036426008 -0.012700622 0.0051087816 -0.04154835
0001e0 d8 95 6a 3b ae 0c 57 bd a2 c0 5a ba 7c 18 56 bd
       0.003579488 -0.052502327 -0.00083447446 -0.052269444
0001f0 55 ce 9e 3b 59 be c9 bd 9d 1a 9d 3c bb ae 9d bd
       0.004846374 -0.09850759 0.01917773 -0.07699343
000200 fa 15 72 bc 1b c9 a6 3c 68 2b 45 bd d0 91 eb 3c
       -0.014775747 0.020359566 -0.0481371 0.028756052
000210 94 bc 12 3c ef f5 a8 3c cb ad 00 3b 8b 0d 87 bd
       0.008956093 0.020625083 0.0019634839 -0.0659438
000220 44 a1 51 3c 73 0c 5a bd 25 b5 26 bc 2f 8f 1c 3d
       0.012794796 -0.05323453 -0.010175024 0.038222488
000230 75 3c 75 3b 84 1c b3 bb 29 f5 fb 3b b2 e9 84 3c
       0.0037420068 -0.005466046 0.0076891375 0.016224716
000240 ac 45 8c 3c 6a 3e a9 3c 34 27 69 bd cd f4 52 bc
       0.017123066 0.020659644 -0.056922153 -0.012875748
000250 34 d6 3c 3d b8 1e 4e bc 8e e1 8e bc 38 77 49 3d
       0.046102718 -0.012580566 -0.017441537 0.04918596
000260 01 87 e1 3b 5a 72 98 bc ab bd c9 3c cb 08 66 bc
       0.006882549 -0.018609215 0.024626574 -0.014040182
000270 28 87 21 bb 38 4a 44 3c 92 b5 2a 3c fe 22 bc 3c
       -0.002464721 0.011980586 0.010419266 0.022965904
000280 29 10 11 be eb d1 80 3c 76 1e 36 bd fd 98 fb bc
       -0.14166321 0.015725097 -0.044462644 -0.030712599
000290 0e e7 15 3c 1e 37 a1 bd e2 44 62 be 1f dd 66 3c
       0.009149326 -0.07871841 -0.22096589 0.014090805
0002a0 a4 63 61 ba da a8 ba 3c cf 6c cd 3c 88 10 c6 3c
       -0.00085979165 0.022785593 0.025076298 0.024177805
0002b0 d1 7b 2d bd c3 69 4e 3d dc 34 03 bc 60 da c4 bb
       -0.04235441 0.05039383 -0.008008208 -0.0060074776
0002c0 63 32 91 3c eb 3e 2c 3e 45 a5 7c 3c 96 de 54 bd
       0.017724222 0.16820876 0.015420263 -0.051970087
0002d0 3c 2c 68 3d 55 18 c8 bc f8 6f 10 bd 0a 40 98 bc
       0.05668281 -0.024425665 -0.03526303 -0.018585224
0002e0 30 55 9f 3c 5a 3f c3 3c 44 7f 8b 3c 20 ba 50 3d
       0.0194498 0.02383392 0.017028458 0.050958753
0002f0 92 69 c2 3c b4 0b c4 3c e5 48 b8 bc 9c 2a 8e 3c
       0.02373198 0.023931362 -0.022495696 0.017354302
000300 b1 8b ef bb b5 25 a1 3c a8 51 76 bc af 1a be 3b
       -0.0073103537 0.0196713 -0.015034117 0.005801521
000310 fb a6 23 3d 37 34 1c 3c a5 f7 e9 3b fd 67 c3 bb
       0.039954167 0.009533933 0.007140117 -0.005963324
000320 a9 31 23 bc 79 b1 1b bc 67 17 06 bc 4f 5b 53 3c
       -0.00996057 -0.009502762 -0.0081842905 0.012900188
000330 27 ff 0f 3d 2e bd ea bc e2 36 2d 3c b4 66 d3 bc
       0.03515544 -0.028654661 0.010572167 -0.025805809
000340 b2 ae d4 3a 98 d9 c0 3a ff 4b c4 bd 0d 79 ad bc
       0.001622638 0.0014713285 -0.095848076 -0.021175886
000350 a8 15 48 3d 5d 87 b5 3d 9a d7 af 3c 88 e1 99 bc
       0.048848778 0.08863709 0.021465112 -0.0187843
000360 d4 66 05 3d cc 7d d4 3b 30 d0 14 be c4 f6 60 3c
       0.032568768 0.0064847227 -0.14532542 0.0137307085
000370 9a 0a 9c b9 63 15 92 3c 6c a9 99 3b 5c 27 72 bb
       -0.00029762537 0.017832464 0.004689386 -0.003694973
000380 b6 fc 95 3b aa 26 31 bd 97 da ee 3c 9c 2f d4 3c
       0.0045772446 -0.043249764 0.029156966 0.025901608
000390 47 0e dc bd 78 21 ad 3c 95 35 09 3d 24 26 60 3c
       -0.10744911 0.021134123 0.033498365 0.013680968
0003a0 bc 76 38 3d ee 50 15 3c 2e ed 2d bd 5f 0a c3 3c
       0.04503511 0.009113533 -0.04246252 0.023808656
0003b0 89 f0 3c 3c 40 82 ec ba 53 f4 22 3e b7 1a 1a 3d
       0.011531957 -0.0018044189 0.15913515 0.037623134
0003c0 a6 e1 18 3b 3c d5 59 3d bd fc 11 3d 29 aa 4b 3d
       0.0023327856 0.05318187 0.03564142 0.049722824
0003d0 52 58 20 bb fe 26 30 3d 1a 0a 96 3d d4 d9 1b 3d
       -0.0024466706 0.043005936 0.073261455 0.038049534
0003e0 15 f5 a1 bc 6f ae 82 ba 3a c1 0b bd 1d e7 3a bd
       -0.019770185 -0.0009970198 -0.034119822 -0.045630563
0003f0 60 e0 5b 3d e1 d4 50 3d aa 67 db 3b 23 5c 50 3d
       0.053680778 0.050984267 0.0066957073 0.05086912

linear2.bias f4 [16]
000000 a5 b9 55 be ba 67 02 3d 28 78 00 bd 46 a8 78 bd
       -0.20871599 0.031837203 -0.03136459 -0.060707353
000010 62 cd 3a bd 94 10 0e 3d 00 f8 c0 3a 00 fc aa 3c
       -0.045606025 0.03468378 0.0014722347 0.020872116
000020 e0 b4 d7 3c 40 ee c2 3c e4 71 12 bd 28 f7 2c bd
       0.026331365 0.023795247 -0.035753146 -0.042227894
000030 ca b4 67 bd 5e df 50 bd 40 22 78 3c 68 57 4b 3d
       -0.0565689 -0.05099427 0.015144885 0.049643904
